…
ate=0.5, step_size=10, suffix=None, test=0, train_shuffle=True, with_house=False, workers=8)
2021-07-02 23:28:45,062 - root - INFO - ---------------------------------------------------TRANING---------------------------------------------------
2021-07-02 23:28:45,062 - root - INFO - Use seed: 74269
2021-07-02 23:28:52,334 - root - INFO - Namespace(attribute_dim=35, box_refine_arch='I15,C3-64-2,C3-128-2,C3-256-2', embedding_dim=128, image_size=(128, 128), input_dim=3, refinement_dims=(1024, 512, 256, 128, 64), roi_cat_feature=True)
2021-07-02 23:28:52,335 - root - INFO - Model(
  (obj_embeddings): Embedding(15, 128)
  (pred_embeddings): Embedding(10, 128)
  (gconv): GraphTripleConv(
    (net1): Sequential(
      (0): Linear(in_features=454, out_features=512, bias=True)
      (1): LeakyReLU(negative_slope=0.01)
      (2): Linear(in_features=512, out_features=1152, bias=True)
      (3): LeakyReLU(negative_slope=0.01)
    )
    (net2): Sequential(
      (0): Linear(in_features=512, out_features=512, bias=True)
      (1): LeakyReLU(negative_slope=0.01)
      (2): Linear(in_features=512, out_features=128, bias=True)
      (3): LeakyReLU(negative_slope=0.01)
    )
  )
  (gconv_net): GraphTripleConvNet(
    (gconvs): ModuleList(
      (0): GraphTripleConv(
        (net1): Sequential(
          (0): Linear(in_features=384, out_features=512, bias=True)
          (1): LeakyReLU(negative_slope=0.01)
          (2): Linear(in_features=512, out_features=1152, bias=True)
          (3): LeakyReLU(negative_slope=0.01)
        )
        (net2): Sequential(
          (0): Linear(in_features=512, out_features=512, bias=True)
          (1): LeakyReLU(negative_slope=0.01)
          (2): Linear(in_features=512, out_features=128, bias=True)
          (3): LeakyReLU(negative_slope=0.01)
        )
      )
      (1): GraphTripleConv(
        (net1): Sequential(
          (0): Linear(in_features=384, out_features=512, bias=True)
          (1): LeakyReLU(negative_slope=0.01)
          (2): Linear(in_features=512, out_features=1152, bias=True)
          (3): LeakyReLU(negative_slope=0.01)
        )
        (net2): Sequential(
          (0): Linear(in_features=512, out_features=512, bias=True)
          (1): LeakyReLU(negative_slope=0.01)
          (2): Linear(in_features=512, out_features=128, bias=True)
          (3): LeakyReLU(negative_slope=0.01)
        )
      )
      (2): GraphTripleConv(
        (net1): Sequential(
          (0): Linear(in_features=384, out_features=512, bias=True)
          (1): LeakyReLU(negative_slope=0.01)
          (2): Linear(in_features=512, out_features=1152, bias=True)
          (3): LeakyReLU(negative_slope=0.01)
        )
        (net2): Sequential(
          (0): Linear(in_features=512, out_features=512, bias=True)
          (1): LeakyReLU(negative_slope=0.01)
          (2): Linear(in_features=512, out_features=128, bias=True)
          (3): LeakyReLU(negative_slope=0.01)
        )
      )
      (3): GraphTripleConv(
        (net1): Sequential(
          (0): Linear(in_features=384, out_features=512, bias=True)
          (1): LeakyReLU(negative_slope=0.01)
          (2): Linear(in_features=512, out_features=1152, bias=True)
          (3): LeakyReLU(negative_slope=0.01)
        )
        (net2): Sequential(
          (0): Linear(in_features=512, out_features=512, bias=True)
          (1): LeakyReLU(negative_slope=0.01)
          (2): Linear(in_features=512, out_features=128, bias=True)
          (3): LeakyReLU(negative_slope=0.01)
        )
      )
    )
  )
  (inside_cnn): Sequential(
    (0): Sequential(
      (0): Conv2d(3, 32, kernel_size=(3, 3), stride=(2, 2))
      (1): BatchNorm2d(32, eps=1e-05, momentum=0.1, affine=True, track_running_stats=True)
      (2): LeakyReLU(negative_slope=0.01)
      (3): Conv2d(32, 64, kernel_size=(3, 3), stride=(2, 2))
      (4): BatchNorm2d(64, eps=1e-05, momentum=0.1, affine=True, track_running_stats=True)
      (5): LeakyReLU(negative_slope=0.01)
      (6): Conv2d(64, 128, kernel_size=(3, 3), stride=(2, 2))
      (7): BatchNorm2d(128, eps=1e-05, momentum=0.1, affine=True, track_running_stats=True)
      (8): LeakyReLU(negative_slope=0.01)
      (9): Conv2d(128, 256, kernel_size=(3, 3), stride=(2, 2))
    )
    (1): AdaptiveAvgPool2d(output_size=1)
  )
  (box_net): Sequential(
    (0): Linear(in_features=384, out_features=512, bias=True)
    (1): LeakyReLU(negative_slope=0.01)
    (2): Linear(in_features=512, out_features=4, bias=True)
    (3): LeakyReLU(negative_slope=0.01)
  )
  (rel_aux_net): Sequential(
    (0): Linear(in_features=384, out_features=512, bias=True)
    (1): LeakyReLU(negative_slope=0.01)
    (2): Linear(in_features=512, out_features=13, bias=True)
    (3): LeakyReLU(negative_slope=0.01)
  )
  (refinement_net): Sequential(
    (0): Conv2d(384, 128, kernel_size=(3, 3), stride=(1, 1), padding=(1, 1))
    (1): BatchNorm2d(128, eps=1e-05, momentum=0.1, affine=True, track_running_stats=True)
    (2): LeakyReLU(negative_slope=0.01)
    (3): Conv2d(128, 64, kernel_size=(3, 3), stride=(1, 1), padding=(1, 1))
    (4): BatchNorm2d(64, eps=1e-05, momentum=0.1, affine=True, track_running_stats=True)
    (5): LeakyReLU(negative_slope=0.01)
    (6): Conv2d(64, 15, kernel_size=(3, 3), stride=(1, 1), padding=(1, 1))
  )
  (box_refine_backbone): Sequential(
    (0): Conv2d(15, 64, kernel_size=(3, 3), stride=(2, 2))
    (1): BatchNorm2d(64, eps=1e-05, momentum=0.1, affine=True, track_running_stats=True)
    (2): LeakyReLU(negative_slope=0.01)
    (3): Conv2d(64, 128, kernel_size=(3, 3), stride=(2, 2))
    (4): BatchNorm2d(128, eps=1e-05, momentum=0.1, affine=True, track_running_stats=True)
    (5): LeakyReLU(negative_slope=0.01)
    (6): Conv2d(128, 256, kernel_size=(3, 3), stride=(2, 2))
  )
  (roi_align): RoIAlign(output_size=(8, 8), spatial_scale=0.125, sampling_ratio=-1, aligned=False)
  (down_sample): AdaptiveAvgPool2d(output_size=1)
  (box_reg): Sequential(
    (0): Linear(in_features=640, out_features=512, bias=True)
    (1): LeakyReLU(negative_slope=0.01)
    (2): Linear(in_features=512, out_features=4, bias=True)
    (3): LeakyReLU(negative_slope=0.01)
  )
)
2021-07-02 23:28:55,018 - ignite.engine.engine.Engine - INFO - Engine run starting with max_epochs=101.
2021-07-02 23:31:34,733 - ignite.engine.engine.Engine - INFO - Epoch[1] Complete. Time taken: 00:02:39
2021-07-02 23:31:34,733 - ignite.engine.engine.Engine - INFO - Engine run starting with max_epochs=1.
2021-07-02 23:34:35,242 - ignite.engine.engine.Engine - INFO - Epoch[1] Complete. Time taken: 00:03:00
…
